pytorch-weights-pruning/models/convnet_pretrained1.pkl (torch_old, 349836 bytes, 8 tensors)

conv1.weight f4 [32, 1, 3, 3]
00000000: c3d0 2dbd 053b ab3e ff5d 82bc 9463 a73e
00000010: 6c6e 88bd 5bb4 62be 93c7 8f3e f8b0 debd
00000020: 7612 56be fb12 ba3e 30f9 b83e 8d9b febc
00000030: 7646 53bd 25eb a73e b288 02be 0903 963e
00000040: 1771 0bbe 73c0 c7be 56b3 803d bf47 b43e
00000050: 6d0c 7c3e b01b 8a3e 42c7 873d 6370 153e
00000060: f0c3 f9be 9641 dcbe 3f25 d0bd b5d1 963e
00000070: 8677 b23e 9739 aebe 3acd 5bbe 46ba 6d3e
00000080: f5bb 0e3e 153e c6bd d7ad 553e cfee 0d3e
00000090: 50f0 02be c63b 67bd 9d95 80be f846 8cbc
000000a0: 2e35 1bbc 7bc5 83bd e307 4a3e 7815 eb3d
000000b0: 6cbf 133e d3a1 773d 883a 8a3e 9d71 b0be
000000c0: 0c5c a23e 8e40 55be d623 48be 53ac ae3e
000000d0: 2489 933e 7c7e febd c7ba fabd 7585 b7be
000000e0: 5674 8bbe 59d7 62be 463d 1ebe e6da 903e
000000f0: 4939 643e e1d3 383e 6ab9 a73e e17b 9f3e
00000100: 5c24 66be 575d 70be cc72 943e bcaf 003e
00000110: 2f4d 5cbe 73ee 973e d45f 363e b1dc 1ebe
00000120: a8f5 893e 61bd c8bd cd0a 88be 3b4f 8e3e
00000130: be57 19bd 14ff a5be e638 083e 9eef 5b3e
00000140: ad49 0fbe b23e ccbd 8236 92bd 30b2 bfbe
00000150: 1057 6a3e d7e9 103c 742a 09bd d624 423e
00000160: 2b83 753e 44dc 46ba f11b 53be 6bed 313e
00000170: 8892 193e bb9f 21be 4bfb cfbd afae 653e
00000180: e508 91be 4ce5 1fbe 606c e63e fa67 6a3e
00000190: 8e1b 923e 4823 953e e8d6 d73d 88d9 e93d
000001a0: 23d1 1e3d e28c d73d f4d0 7b3e e03d 313e
000001b0: 43a3 8ebe 6528 8dbe 0c42 78be e384 843d
000001c0: 48dd b93d 62c7 babd e28f d93e 7e9e cd3d
000001d0: 24df ed3d 2cdc 0e80 0575 0d80 431c 0780
000001e0: 2e57 0480 9a98 0280 ae04 0c80 11fd 0280
000001f0: 30c5 0a80 9e8c 0b80 9073 9fbc f674 07be
00000200: c547 09be 3521 84bd d5c3 b2bd f529 9dbd
00000210: b5f9 2dbe 951b d0bd c9d8 24bd de58 aabe
00000220: 25a6 eabe 30e9 aabe 7b86 493d cc14 993a
00000230: 61d0 b1bb 0c71 ae3e 5187 b83e 0abc 863e
00000240: 8b48 8cbe 0cba 9dba 6de5 af3e 057a 253e
00000250: fdf1 af3e 0fe2 1b3e 345c dd3b dabe 0a3e
00000260: e724 2dbd 067b 743e adc0 59be 49b5 ddbd
00000270: 9c28 8d3e fa7a 3c3e fb04 3e3e 295c 14bd
00000280: c480 d83d 4f73 08bd afe0 2cbe 7d7d 46be
00000290: 3ebc e83d 1f68 ad3e e485 eb3e 86c8 cc3e
000002a0: 3f38 2d3e 3949 263e 9319 883e 1aae 913c
000002b0: 1d2d 46be edcb 5c3d 1a32 263e 9d11 763e
000002c0: 1eca 023e ecaf e23d 48a8 5c3e 2c0d 5c3e
000002d0: 9459 413e bee6 1abe 53ec 503e 3b68 963e
000002e0: c770 973e d7c5 463e 7ad8 4a3e 04b5 93be
000002f0: 8956 52be d0b9 9cbd eb0e 41bd 1d77 dcbc
00000300: 45f1 6ebd 858e 87bd 11fb 41bd 4207 84bc
00000310: bbaa 40bd 7209 c1bd 966d ae3e 738a a43e
00000320: 12d7 c13e 2c92 02be 10ec 54be d9c3 983e
00000330: 261e b7be c8e8 aebe 246b ea3d b08b 12be
00000340: 3940 163e 736a 98bd 8846 5f3e f7e6 833e
00000350: 7ff7 7a3e eff5 a9be 05f7 9cbe e1fe 3b3e
00000360: 76f3 193e 20f1 c93e b860 bd3e ab63 dcbd
00000370: aa91 55be 0701 58bc e38a 85be e5b6 96be
00000380: 6c64 b1be dc63 ffbc 2e41 8b3e 534e 193e
00000390: 2cfe f83d 0f4e ac3d 1c3f b43d cf19 843e
000003a0: 2c4a 653c 38cb 38be 3cb8 213e a9f5 253d
000003b0: 9150 503e 8d66 1a3e 3701 143d db20 763c
000003c0: c3f7 16be 7bfb 36be f25b 9ebe b7c4 d53e
000003d0: e868 99bd 6b6c 7dbe 440f 7f3e 8d9f 15bb
000003e0: 0501 81be fbd7 063e a016 15be cc3c 8ebe
000003f0: 16ac 9c3c 4b19 e83d 1ce6 d13c fe3e f13e
-0.04243542 0.33443466 -0.015913961 0.3269316 -0.06661686 -0.22139113 0.2808195 -0.10873598
-0.2090548 0.36342606 0.36127615 -0.031080032 -0.05158087 0.3279659 -0.12747458 0.2929919
-0.13617359 -0.39014015 0.062842056 0.35210988 0.24614115 0.2697425 0.06629802 0.14593653
-0.487823 -0.43018788 -0.10163354 0.2945687 0.34856814 -0.34028313 -0.21465006 0.23215589
0.13938887 -0.0967981 0.20867096 0.1386063 -0.12786984 -0.05645349 -0.25114146 -0.017123684
-0.009473128 -0.06434151 0.19729571 0.11478704 0.1442849 0.060457062 0.2699778 -0.3446168
0.3171085 -0.20825407 -0.1954492 0.34115848 0.28815567 -0.12426469 -0.12242656 -0.35844007
-0.27237195 -0.22152461 -0.15453061 0.28292006 0.22287478 0.18049575 0.32758647 0.311492
-0.22474808 -0.23473106 0.28993833 0.12567037 -0.21513818 0.2967411 0.17809993 -0.15513875
0.26945233 -0.09801746 -0.2657074 0.27794823 -0.037437193 -0.32421172 0.13302955 0.21478125
-0.13992949 -0.09972896 -0.07139303 -0.37440634 0.22884774 0.008844814 -0.033487752 0.18959364
0.23975818 -0.0007585923 -0.20616128 0.17375724 0.14997303 -0.15783589 -0.10155352 0.22429918
-0.28327098 -0.15614814 0.4500456 0.22891226 0.28536648 0.2912848 0.10539037 0.11418444
0.038773667 0.10524918 0.24591428 0.1730876 -0.27858934 -0.2756988 -0.24243945 0.06470659
0.09075409 -0.091200605 0.42492586 0.100399956 0.11614826 -1.36468e-39 -1.23584e-39 -6.52987e-40
-3.98616e-40 -2.38414e-40 -1.103705e-39 -2.74454e-40 -9.89093e-40 -1.060634e-39 -0.019464284 -0.13228211
-0.13406284 -0.06451646 -0.08728758 -0.07674018 -0.16989787 -0.10161511 -0.040245805 -0.33270925
-0.45829883 -0.33381033 0.049200516 0.0011679172 -0.005426452 0.34070623 0.36040738 0.26315337
-0.27399096 -0.0012033596 0.34354725 0.16159828 0.3436431 0.15222953 0.0067553762 0.13549367
-0.04227152 0.23875055 -0.21264906 -0.10825593 0.27570045 0.18406287 0.18556587 -0.036220703
0.10571435 -0.03331309 -0.16882585 -0.19383807 0.11364029 0.338685 0.46000588 0.39996737
0.16915987 0.1623887 0.26582012 0.017783213 -0.19353147 0.053905416 0.1623005 0.24030156
0.12772414 0.11068711 0.21548569 0.214894 0.18881828 -0.15127084 0.2040265 0.29376397
0.2957823 0.19411407 0.19809142 -0.2884904 -0.20540823 -0.076526284 -0.047133368 -0.026912266
-0.05833556 -0.0661898 -0.047358576 -0.016116742 -0.04703782 -0.0942563 0.34067982 0.32136878
0.37859398 -0.12751073 -0.20793176 0.2983692 -0.3576519 -0.34161973 0.11446217 -0.14311099
0.14672936 -0.074421786 0.2180425 0.2576215 0.24508475 -0.33195445 -0.3065721 0.18358947
0.15034279 0.39441776 0.36987853 -0.10761198 -0.20856348 -0.013183839 -0.26082525 -0.29436412
-0.34646928 -0.031175546 0.27198166 0.14971285 0.121578544 0.08413326 0.088011 0.2580094
0.013994735 -0.18046272 0.15792936 0.040517483 0.20343234 0.15078183 0.03613397 0.015022482
-0.14742951 -0.1786937 -0.30929524 0.41751644 -0.074907124 -0.2474839 0.24908167 -0.0022830695
-0.2519609 0.13168328 -0.14559412 -0.2778076 0.019125026 0.11332949 0.02562242 0.47118372

conv1.bias f4 [32]
00000000: c414 fabd e31f 55bd 3212 4f3b a594 74be
00000010: 4e66 1c3d 84c0 483a ed4f 213e eea9 3bbe
00000020: c4f0 e23c df2c 00bb a47d 0fbe b95d 033e
00000030: fe20 553d 82f0 0880 3c76 9e3e 8741 003e
00000040: f543 2fbd 47df b0ba 8d37 98bd c494 32bd
00000050: ac52 0abe 058c 1f3e bd31 34be 350c 033d
00000060: bc7e 8a3e 76f3 2bbd 4116 6d3d 52be 503d
00000070: 5413 0cbc 8837 ddbc dfdf 80bd 378d 783d
-0.12210992 -0.052032363 0.0031596539 -0.23884828 0.038183503 0.00076580816 0.15753146 -0.18326542
0.027702697 -0.0019557995 -0.14012772 0.12828721 0.052033417 -8.20962e-40 0.3094958 0.12524997
-0.04278942 -0.0013494276 -0.074324705 -0.043598905 -0.135081 0.15580757 -0.17597099 0.031994063
0.27049816 -0.04198023 0.05788255 0.050962754 -0.00854953 -0.027004018 -0.062927 0.060681548

conv2.weight f4 [64, 32, 3, 3]
00000000: 4927 0180 2e5d 0b80 d6e0 0c00 7dec 0200
00000010: 6253 0a80 5567 0980 f915 0f80 a4f4 0280
00000020: fad3 0d80 d934 0080 a01a 0d80 220d 0180
00000030: a2e8 0c80 1e90 0e00 e291 0280 e054 0480
00000040: 8e6f 0680 c555 0d80 790e 0a00 3ab6 0000
00000050: 4526 0380 0a12 0300 f71f 0300 d0e6 0880
00000060: ea49 0080 77b3 0d80 bc0e 0d80 90ff 0780
00000070: 505b 0500 f42d 0480 2176 0280 964d 0d80
00000080: 5235 0180 60bf 0c80 474f 0180 15f9 0280
00000090: ae3f 0480 13e1 0380 2325 0480 a827 0380
000000a0: 7fec 0880 4c91 0c80 ea8a 0580 05b7 0b80
000000b0: 347a 0d80 7d6f 0480 1c2f 0c80 1f7a 0c00
000000c0: b984 0e80 2e8c 0a80 4237 0780 deef 0280
000000d0: 0f04 0580 ab39 0b80 5876 0780 9cc6 0680
000000e0: 23b5 0e80 5efe 0b80 f6e0 0a80 de22 0680
000000f0: 9399 0280 a846 0380 9146 0380 ef37 0880
00000100: bd7b 0a80 1f26 0d00 6ca4 0180 839e 0080
00000110: 57f6 0780 e743 0580 036d 0280 e733 0000
00000120: fdb0 0100 5d64 0a80 a9be 0b80 d91f 0480
00000130: d1f6 0580 1378 0180 3fb6 0c80 ca5b 0b80
00000140: 72e5 0a80 07cd 0300 363a 0180 5708 0500
00000150: 0591 0780 8875 0280 f490 0480 e0fb 0880
00000160: d765 0c80 bb92 0c80 a4f5 0d00 4b49 0600
00000170: 7f28 0480 7e98 0c80 0dcf 0300 da47 0480
00000180: f029 0580 d4cf 0400 4d62 0780 3c77 0680
00000190: a791 0b80 4f48 0e80 4a61 0b80 3755 0980
000001a0: ba32 0880 7220 0e80 9ee5 0380 ccdf 0980
000001b0: ca66 0a00 52b2 0380 1e2b 0380 9e32 0b80
000001c0: 6e95 0b80 2db3 0380 ddda 0b00 75eb 0d80
000001d0: 2ac1 0a80 cfeb 0680 b9ef 0780 9d3b 0100
000001e0: 4451 0400 f28d 0680 ee23 0d80 c8a8 fb39
000001f0: be58 0b80 6222 0780 ab48 0280 087a 0a80
00000200: 58a5 0a80 91ee 0380 29ab 0180 a38e 0980
00000210: 7bfe 0c80 7241 0880 6263 0280 fd4f 0e80
00000220: d70a 0c80 0e48 0380 b6c1 0680 b4ac 0d80
00000230: 793c 0980 78c6 0900 d56a 0980 f312 0980
00000240: 5015 0880 13ab 0e00 f719 0800 a2a0 0b80
00000250: eb3a 0480 900b 0380 3bc5 0780 a04e 0c80
00000260: b406 0880 d768 0180 c044 0500 facb 0500
00000270: 2aa1 0880 01df 0580 a34f 0c80 02b3 0780
00000280: ad82 0e80 4e2f 0580 5908 0480 0f64 0d00
00000290: a226 0600 185d 0980 500d 0e80 3e02 0b80
000002a0: cfb8 0e80 a8d6 0e80 d338 0980 c20a 0b80
000002b0: 8767 0300 1f32 0300 765d 0880 ab84 0780
000002c0: f704 0380 6858 0880 1bb6 0980 8cc6 0780
000002d0: 18b8 0d80 3198 0880 ad22 0400 518c 0380
000002e0: 4d2c 0280 8b2f 0380 2554 0a80 5c4a 0880
000002f0: f6c9 0e80 ddda 0580 85b8 0580 e67c 0280
00000300: 7c9c 0780 7d8c 0780 9000 0980 0f94 0280
00000310: 00c7 0780 14d0 0e00 2195 0800 a859 0a00
00000320: d5ce 0380 6191 0d00 f857 0300 38ec 0680
00000330: e7d2 0780 aa42 0000 7ae3 0b80 c175 0980
00000340: 2d9a 0780 a295 0b80 45e9 0c80 6b80 0e80
00000350: 8403 0580 f706 0780 517d 0980 67ae 0380
00000360: 3e86 0380 083c 0880 eaec 0b80 21d1 0600
00000370: f999 0a80 e679 0480 6104 0380 801f 0b80
00000380: 560e 0880 d8c2 0680 7dad 0a80 b460 0600
00000390: f55b 0d80 9396 0b80 bac8 0a80 ec09 0480
000003a0: 4bbb 0280 7d1e 0480 3b55 0d80 abc7 0280
000003b0: 5726 0580 a2d8 0180 d51b 0f80 b794 0980
000003c0: 5ae1 0480 572c 0f80 fb76 0980 305d 0c80
000003d0: ddc7 0780 971f 0080 3066 0880 2dfe 0a80
000003e0: 644b 0600 9309 0580 d59e 0480 0291 0480
000003f0: 1829 0b80 8861 0e80 8897 0700 8181 0780
-1.05928e-40 -1.043617e-39 1.182682e-39 2.68507e-40 -9.48267e-40 -8.63588e-40 -1.385415e-39 -2.71432e-40
-1.269904e-39 -1.8958e-41 -1.203413e-39 -9.6547e-41 -1.185479e-39 1.337396e-39 -2.36004e-40 -3.9779e-40
-5.91031e-40 -1.22463e-39 9.23547e-40 6.537e-41 -2.89235e-40 2.81978e-40 2.86973e-40 -8.17484e-40
-2.6515e-41 -1.258241e-39 -1.199147e-39 -7.34527e-40 4.91934e-40 -3.83827e-40 -2.26048e-40 -1.221694e-39
-1.10963e-40 -1.170678e-39 -1.20275e-40 -2.73025e-40 -3.90186e-40 -3.56248e-40 -3.80664e-40 -2.89732e-40
-8.19523e-40 -1.154149e-39 -5.0901e-40 -1.075845e-39 -1.2377e-39 -4.07336e-40 -1.118926e-39 1.145835e-39
-1.333309e-39 -9.68642e-40 -6.62671e-40 -2.69719e-40 -4.60633e-40 -1.030878e-39 -6.85302e-40 -6.2226e-40
-1.350677e-39 -1.10144e-39 -9.99056e-40 -5.63521e-40 -2.38763e-40 -3.00853e-40 -3.00821e-40 -7.54749e-40
-9.62744e-40 1.207537e-39 -1.50819e-40 -5.6863e-41 -7.31219e-40 -4.83536e-40 -2.22777e-40 1.8619e-41
1.55327e-40 -9.54359e-40 -1.078586e-39 -3.78767e-40 -5.47719e-40 -1.3491e-40 -1.167404e-39 -1.043118e-39
-1.000664e-39 3.49056e-40 -1.12718e-40 4.62169e-40 -6.94872e-40 -2.25833e-40 -4.19341e-40 -8.2504e-40
-1.138559e-39 -1.154663e-39 1.281981e-39 5.77306e-40 -3.81869e-40 -1.15673e-39 3.49782e-40 -3.93117e-40
-4.74222e-40 4.41897e-40 -6.78112e-40 -5.93786e-40 -1.06244e-39 -1.311636e-39 -1.045091e-39 -8.57089e-40
-7.52881e-40 -1.297336e-39 -3.57878e-40 -9.06803e-40 9.55229e-40 -3.39476e-40 -2.90974e-40 -1.028348e-39
-1.063796e-39 -3.39783e-40 1.088704e-39 -1.278328e-39 -9.87649e-40 -6.35605e-40 -7.28845e-40 1.13221e-40
3.96495e-40 -6.01933e-40 -1.20675e-39 0.00048000203 -1.042025e-39 -6.55183e-40 -2.0974e-40 -9.62132e-40
-9.77669e-40 -3.61088e-40 -1.53236e-40 -8.77688e-40 -1.193316e-39 -7.58161e-40 -2.19323e-40 -1.314391e-39
-1.105915e-39 -3.01355e-40 -6.20503e-40 -1.255816e-39 -8.48213e-40 8.97717e-40 -8.64844e-40 -8.33317e-40
-7.4233e-40 1.347067e-39 7.43998e-40 -1.067815e-39 -3.88478e-40 -2.79654e-40 -7.13601e-40 -1.130231e-39
-7.37089e-40 -1.29445e-40 4.8384e-40 5.3235e-40 -7.92499e-40 -5.39176e-40 -1.130594e-39 -7.07064e-40
-1.332575e-39 -4.76147e-40 -3.70337e-40 1.229756e-39 5.64872e-40 -8.59915e-40 -1.290473e-39 -1.010995e-39
-1.351994e-39 -1.362701e-39 -8.46904e-40 -1.01405e-39 3.12645e-40 2.93487e-40 -7.68211e-40 -6.90441e-40
-2.77288e-40 -7.66398e-40 -8.91847e-40 -7.14074e-40 -1.259902e-39 -7.8928e-40 3.79781e-40 -3.25843e-40
-1.99563e-40 -2.92562e-40 -9.4854e-40 -7.61359e-40 -1.358147e-39 -5.37691e-40 -5.2537e-40 -2.28476e-40
-6.98984e-40 -6.93246e-40 -8.26721e-40 -2.36784e-40 -7.14236e-40 1.360341e-39 7.88181e-40 9.50518e-40
-3.49704e-40 1.246014e-39 3.07064e-40 -6.35752e-40 -7.18506e-40 2.3915e-41 -1.091794e-39 -8.68762e-40
-6.98156e-40 -1.063869e-39 -1.185707e-39 -1.331765e-39 -4.60439e-40 -6.45347e-40 -8.71475e-40 -3.3807e-40
-3.23664e-40 -7.56219e-40 -1.095179e-39 6.26034e-40 -9.7359e-40 -4.11071e-40 -2.77077e-40 -1.02149e-39
-7.39827e-40 -6.2091e-40 -9.80591e-40 5.85704e-40 -1.22685e-39 -1.064206e-39 -9.90362e-40 -3.70901e-40
-2.50859e-40 -3.78279e-40 -1.224436e-39 -2.55298e-40 -4.72931e-40 -1.69549e-40 -1.387517e-39 -8.79868e-40
-4.48183e-40 -1.393439e-39 -8.69202e-40 -1.135455e-39 -7.14546e-40 -1.1332e-41 -7.71342e-40 -1.009536e-39
5.78058e-40 -4.62612e-40 -4.2432e-40 -4.19361e-40 -1.024932e-39 -1.320685e-39 6.97208e-40 -6.89306e-40

conv2.bias f4 [64]
00000000: cae4 0680 16ef a7bc 4a9d 2fbd 6b35 d1bc
00000010: d96e 483c 25df de3b 04be 0d80 79bc 2c3c
00000020: 035a cdbc e6b5 0e80 5672 0a80 1e10 193b
00000030: b9ce 0680 3af0 e7bc 2930 edbc ec06 30b6
00000040: d27c 02bc 1659 0c80 3dfc 0580 dc86 0880
00000050: c2d0 79ad 5c68 0880 7310 0f80 e10a 0580
00000060: f415 0680 9102 8dbd 7432 0c80 ad6c 16b5
00000070: cd39 0f80 a11d 0880 1a30 0480 3d21 0c80
00000080: 5f2d f9ba 7dc6 0b80 9228 0b80 acd6 c83c
00000090: 21b6 0380 a6e8 50bb f102 80bc 4d91 48bd
000000a0: b81e 0880 fe1d 0880 96bc 0980 f027 0980
000000b0: 1e81 0780 b8e6 0680 518e 0480 860f 0a80
000000c0: ba38 0780 f098 c4bb 5ec7 0580 5d30 3ebd
000000d0: cef4 b13c 0ec3 0380 0014 25bd b6ea 0780
000000e0: 5c73 0a80 abc2 0780 0dbb 0a80 968d caba
000000f0: 11c9 a5bd 0879 3cbd 9f0f 433c 1799 f03c
-6.33087e-40 -0.020499747 -0.042874612 -0.025538167 0.012233459 0.0068015032 -1.262026e-39 0.010542982
-0.025067335 -1.35095e-39 -9.59371e-40 0.0023355554 -6.25171e-40 -0.028312791 -0.028953629 -2.6230073e-06
-0.00796433 -1.133984e-39 -5.49664e-40 -7.83062e-40 -1.4200365e-11 -7.72121e-40 -1.383433e-39 -4.6308e-40
-5.58888e-40 -0.06885255 -1.120125e-39 -5.60375e-07 -1.398267e-39 -7.45313e-40 -3.84598e-40 -1.11395e-39
-0.0019010714 -1.081395e-39 -1.024744e-39 0.024516426 -3.40842e-40 -0.003187695 -0.015626403 -0.048966695
-7.45704e-40 -7.45443e-40 -8.94171e-40 -8.40846e-40 -6.89167e-40 -6.33779e-40 -4.18395e-40 -9.23924e-40
-6.63198e-40 -0.005999677 -5.30697e-40 -0.04643284 0.021723177 -3.45479e-40 -0.040302277 -7.27047e-40
-9.59738e-40 -7.12682e-40 -9.85456e-40 -0.0015453573 -0.08094991 -0.046013862 0.01190558 0.029369874

conv3.weight f4 [64, 64, 3, 3]
00000000: ce2b 0500 b1b6 0100 e6ad 0200 b055 0c00
00000010: f125 0700 0a5b 0c00 2b2a 0700 1597 0300
00000020: 4147 0b00 9309 80bb 3083 a0bb cb88 49bc
00000030: e66f 44bb 3939 bfbb ea9f 28bc 5b1c afbb
00000040: 20d8 133c c158 b23c 70a5 11b9 ccf2 05b8
00000050: 5f72 d3bb a5be b837 30a0 873a e987 98bb
00000060: 4cd8 28bb 92d4 9abc 7ddc 1dbd 2672 fcb9
00000070: d547 97bb ad5e 09bc 92b1 86bb 0086 0abc
00000080: bd37 83bc 4926 08bc 7373 11bc b46a 0f3b
00000090: 3e7a 10ba fac3 33bb 9757 fcb9 3660 f4ba
000000a0: 6caf 49ba 8028 5fb9 e80a 523b 56f2 56bb
000000b0: 82cd 553c 774e c03a 8366 38ba 517a d5bb
000000c0: f972 a8ba 093d 2abb e461 ff3a 38e1 28b9
000000d0: abaa 4c3b 30b4 673c edc9 0e80 4e74 0100
000000e0: 6939 0880 721d 0680 3f12 0b00 f26e fcb9
000000f0: 2d16 0900 3018 0500 f601 0b00 4241 d53b
00000100: 9a07 aeba e2be 0cbc fc81 1cbb bd4c d3bb
00000110: 764b 0fbc f1a5 3cbb 69a8 26bc 8113 dabb
00000120: 521c 28bb d4ed 49bb f2e8 12bc b1d2 e8bb
00000130: 75a4 23bc 047f dcba ac87 b8bb 75c0 06bc
00000140: f76f 94bc 0649 0880 c8d7 0700 8a18 0b80
00000150: a247 0580 06ab 0500 38f9 0880 3ca7 0880
00000160: 4f72 0980 7aa8 fb39 0061 0680 40ac 0c80
00000170: 26d0 0a80 169d 0500 3b96 0380 3ec5 0b80
00000180: 3b0e 0800 b23e 0480 674f 0480 76af 0dbb
00000190: da88 84ba 1b2e 0abc 058b 41bb c02a 21bb
000001a0: b36f aabb 371d 71bb 9dad aebc d952 51bd
000001b0: b0db 0980 9523 0380 510f 0380 d673 0580
000001c0: 33f1 0d80 4369 0380 683a 0e80 9196 0b80
000001d0: 8f78 0d80 b64c a1bb 7abd 0cbb 9dd4 c9b9
000001e0: 7175 8abb b45d c3bb bafa f8bb f19c 31bc
000001f0: 7755 7fbc 63cf 25bd ab0c c839 5460 13bb
00000200: 854d 91bb 54b7 97bb e250 d8bb fdab a8bb
00000210: c52c 56bb 9801 453c 7e0f b83c 6c98 0580
00000220: 1151 0880 40a4 0600 46c2 0900 4078 0700
00000230: 3c33 0d00 6600 0300 c510 0700 2292 6712
00000240: 66de 0fbb ef2e 4bbb 5d85 153b 92df 7339
00000250: 75a1 10bb a713 a8bb 39d8 13bc 8896 51bb
00000260: ee63 4bbc 6054 0d00 e7c5 0b00 729e 0780
00000270: 0aa0 0a00 45fc 0e80 92a1 0900 9b23 0d00
00000280: a37d 0600 db17 0700 46d1 0d00 7790 0a00
00000290: b92a 0700 dcf6 0b00 018e 0e00 02d1 0900
000002a0: 9838 0e00 a363 0d00 7d7c 0700 eafc 0300
000002b0: 6aed 0880 46bf 0d80 987c 0500 7d10 0e80
000002c0: ccf4 0680 5d40 0c80 f616 0380 8f0d 0680
000002d0: 45d3 0e00 30d8 0200 cbeb 0d00 e8ea 0280
000002e0: 9301 0980 2bf8 0b00 b233 0880 294f 0700
000002f0: bba9 0d80 f00b 0a00 4269 0d00 ad83 0d80
00000300: 8a80 0900 ec4c 0580 6489 0c00 3d68 0700
00000310: 1342 0a00 cfcc 0d80 3b9c 0780 8baf 0200
00000320: bd49 0e80 0179 0e80 8602 0700 b6e6 0d00
00000330: 307d 0c80 f115 0400 c149 0800 4edd 0480
00000340: 33d5 0580 dc71 0480 3193 0580 61e8 0c00
00000350: 09bf 0d00 d0f4 0c80 b584 0b00 92e8 0e00
00000360: 8d3d 0500 8f79 0680 1320 0a80 77c0 0980
00000370: 6ae8 0e80 1e9b 0800 1039 0e80 914f 0600
00000380: 9b82 0400 0f5a 9cbb f002 5bbb bc77 0fbb
00000390: e2f0 13bb ccca 803a 37d5 3abc 525f 10bc
000003a0: f395 a3bc 9ca7 04bd 81fe 0b00 6c2f 0d00
000003b0: b543 0b00 2b6b 0400 b53e 0800 5b18 0a00
000003c0: 8292 0600 496d 0500 afbd 0c00 ecae 7512
000003d0: 0283 0b00 c0c7 c909 3f71 bf28 8fe7 fe29
000003e0: a03f b630 79de d52a dea1 dc2f a706 aa33
000003f0: 98d9 0e80 3999 0b80 1eea 0780 079d 0c00
4.74892e-40 1.57373e-40 2.46054e-40 1.132765e-39 6.56459e-40 1.134685e-39 6.57975e-40 3.29705e-40
1.035752e-39 -0.0039073913 -0.0048984513 -0.01230068 -0.0029973923 -0.005835679 -0.010292033 -0.0053439564
0.009023696 0.021770837 -0.00013889908 -3.1935793e-05 -0.006452843 2.2023285e-05 0.0010347422 -0.0046548736
-0.0025763689 -0.01890019 -0.038540352 -0.00048150233 -0.0046167173 -0.008384389 -0.0041105235 -0.0084548
-0.016017789 -0.008309909 -0.008877623 0.0021883668 -0.00055113796 -0.0027430044 -0.00048130445 -0.0018644396
-0.00076936814 -0.00021282025 0.0032049958 -0.0032798252 0.013049485 0.0014671822 -0.00070343184 -0.0065148254
-0.0012851647 -0.0025976321 0.001948413 -0.00016105629 0.0031229656 0.014142081 -1.358134e-39 1.33558e-40
-7.55279e-40 -5.61576e-40 1.016736e-39 -0.00048147846 8.34475e-40 4.67854e-40 1.010894e-39 0.0065080235
-0.0013277412 -0.008590432 -0.0023881188 -0.006448357 -0.008746019 -0.0028785432 -0.010171988 -0.006655157
-0.0025651646 -0.0030811923 -0.008966671 -0.0071051945 -0.00998794 -0.0016822522 -0.0056314077 -0.008224596
-0.018119795 -7.6088e-40 7.20256e-40 -1.018993e-39 -4.84874e-40 5.20529e-40 -8.24087e-40 -7.94676e-40
-8.67526e-40 0.00047999976 -5.8581e-40 -1.163818e-39 -9.93025e-40 5.15529e-40 -3.29399e-40 -1.080948e-39
7.39789e-40 -3.89833e-40 -3.95826e-40 -0.0021619475 -0.0010111586 -0.008433844 -0.0029532325 -0.0024592131
-0.005201304 -0.0036791095 -0.02132302 -0.0511044 -9.05328e-40 -2.88271e-40 -2.81001e-40 -5.00732e-40
-1.280387e-39 -3.13267e-40 -1.306649e-39 -1.064204e-39 -1.23711e-39 -0.0049224747 -0.0021475242 -0.00038496117
-0.004225426 -0.005962098 -0.0075982483 -0.01084064 -0.015584341 -0.040480983 0.0003815641 -0.0022487836
-0.00443429 -0.0046300087 -0.006601439 -0.0051474557 -0.0032680493 0.012024306 0.022468325 -5.13856e-40
-7.63765e-40 6.09935e-40 8.96212e-40 6.85986e-40 1.212241e-39 2.7565e-40 6.48864e-40 7.307087e-28
-0.0021952628 -0.0031003316 0.0022815086 0.00023257572 -0.0022068892 -0.005129296 -0.0090237195 -0.0031980593
-0.012413962 1.22413e-39 1.081184e-39 -6.99688e-40 9.75766e-40 -1.376194e-39 8.8448e-40 1.206634e-39
5.96083e-40 6.51406e-40 1.268935e-39 9.70179e-40 6.58174e-40 1.098747e-39 1.336638e-39 9.01497e-40
1.305999e-39 1.229604e-39 6.87506e-40 3.66235e-40 -8.19852e-40 -1.262477e-39 5.03873e-40 -1.291612e-39
-6.3883e-40 -1.125115e-39 -2.83743e-40 -5.55877e-40 1.361486e-39 2.61224e-40 1.278448e-39 -2.6794e-40
-8.27084e-40 1.099216e-39 -7.53229e-40 6.71246e-40 -1.254749e-39 9.22637e-40 1.231621e-39 -1.241098e-39
8.7263e-40 -4.86772e-40 1.151312e-39 6.80242e-40 9.42058e-40 -1.267333e-39 -6.98893e-40 2.46644e-40
-1.312149e-39 -1.329105e-39 6.43754e-40 1.276625e-39 -1.146935e-39 3.75213e-40 7.61142e-40 -4.46731e-40
-5.35659e-40 -4.08187e-40 -5.1198e-40 1.185388e-39 1.262392e-39 -1.189848e-39 1.057797e-39 1.369127e-39
4.81258e-40 -5.9462e-40 -9.29861e-40 -8.95563e-40 -1.369071e-39 7.9033e-40 -1.306167e-39 5.79556e-40
4.14194e-40 -0.004771478 -0.00334185 -0.0021891436 -0.0022573997 0.0009826063 -0.011403373 -0.008811789
-0.019968962 -0.032386407 1.101489e-39 1.210873e-39 1.034479e-39 4.05787e-40 7.57179e-40 9.27092e-40
6.0357e-40 4.98382e-40 1.170072e-39 7.7523977e-28 1.057187e-39 4.8576834e-33 2.1254372e-14 1.1320035e-13
1.3260326e-09 3.7990772e-13 4.013278e-10 7.917452e-08 -1.363755e-39 -1.065156e-39 -7.26834e-40 1.158357e-39

conv3.bias f4 [64]
00000000: d2d3 4abc 870b cdbc 0c57 8fba 22fc c8bb
00000010: 9b5e 18bd 8544 cdbc b66d 853c 0a1c a9bc
00000020: 043c 943d c486 b8bd 988e 37bc 9c41 10bc
00000030: 32a8 cab7 a796 99bc 38fe f8b5 60f9 68bc
00000040: 7936 8abb 69cc d839 8906 013b fac5 83bc
00000050: bebb 29bc d359 0e3c 7686 28bb 561e 0abd
00000060: 9e59 be95 7ab6 53bb bc8c 3abd f2f1 98bb
00000070: da93 283d 2588 10b9 9605 04bd f72b ae3b
00000080: 8573 e2bd 5d1d cdbb b75e d33c 98e5 1abd
00000090: a4a6 f0bc 78ca 4fb9 e0a8 58bb 027c 0cbb
000000a0: 979b aabc d35e c6bc 8b5d 09bb 2e9d 27ba
000000b0: 7309 4ebb 8c89 24bc 91f3 3ab6 f376 aeb6
000000c0: 48ae 72b7 3890 02bd 654f 1fb9 b763 3ebd
000000d0: c63f 953c f894 61ba b2d6 60bd 463d 74bc
000000e0: d93e 32bb dcbc b2bb 5359 1d3c 8d14 8fbd
000000f0: d35c 13bb 21d4 67b9 b12c 653b 8c6c 21bb
-0.012379603 -0.02502991 -0.0010935976 -0.006133572 -0.037199598 -0.025057087 0.016287666 -0.020643253
0.072380096 -0.090100795 -0.011203431 -0.008804705 -2.4158599e-05 -0.018748594 -1.8551427e-06 -0.014219612
-0.0042179194 0.00041351028 0.0019687733 -0.016085614 -0.010359703 0.008688408 -0.002571491 -0.033720337
-7.688178e-26 -0.003230481 -0.04554437 -0.004667514 0.041156627 -0.00013783628 -0.03223189 0.0053152996
-0.1105719 -0.006259604 0.025802 -0.037816614 -0.029376335 -0.00019816484 -0.0033059642 -0.002143622
-0.020826144 -0.024215138 -0.0020960297 -0.0006393966 -0.0031438738 -0.010042559 -2.7857934e-06 -5.1994516e-06
-1.4464902e-05 -0.03187582 -0.00015192998 -0.046481814 0.018218886 -0.0008605267 -0.05489225 -0.014907187
-0.0027198105 -0.0054546427 0.009603816 -0.069863416 -0.0022485747 -0.00022108901 0.0034969265 -0.002463135

linear1.weight f4 [10, 3136]
00000000: 052d 46ba 8895 353c 7569 ecba caa4 633b
00000010: 3af9 ddb9 6fd8 8faa a6d7 3197 9445 b33a
00000020: 066b 09bc bfec 233d bf34 f4b9 b08a 26b6
00000030: 6822 8988 c829 2c2e f6c1 f53b 1523 bf3c
00000040: 5f01 11ba 6d57 b637 5048 8938 d8fb 1337
00000050: 5b4f 9c39 310d f03a 2d73 14bb 33fc 0ab8
00000060: bdcb 1738 2c21 85b4 8980 2939 417c 8739
00000070: d91e 3bbb 5383 a9ba d977 a8b8 5254 b3b8
00000080: a91a 5a37 5464 af39 829a bb3a 68f9 d037
00000090: 8fef 98ba aeac 4b34 f421 f937 342e 9a36
000000a0: 6e4c a638 bcc9 b53b ba92 2b34 0261 a539
000000b0: d3f8 5d36 7c4c 3a38 7632 0939 1687 023b
000000c0: bc00 183b 9064 07bb 6e2b ecbb acbf 1cbd
000000d0: b1ef 18bd 4420 cdbc 7fee 0bbd 44da 523c
000000e0: 1cb7 37bd 8727 96bd 308b d0bc 5e77 29bd
000000f0: a2ab d83d 8770 8f3d b7ba 173d e177 02bd
00000100: 7a56 75bd 99c0 66bd bb1f 16bc b19b d63c
00000110: 8de3 133e ec42 f43c 12e6 cbbc 74cb 04bd
00000120: dc77 d1bd 8a57 a13d 7816 b9bb 9fad cd3c
00000130: 29a5 10bd 25c4 ccbc e5ee 1c3d a829 9dbc
00000140: ee72 953d a87c b0bb cb5b 54bd ca81 9abd
00000150: 0c3e c4bb d458 973d b978 9bba a52d 133d
00000160: 0278 6c36 96ba a4bc ae26 07bd 7ccf d9bb
00000170: 2314 83bc 4896 93ba 685f 45b7 0b3e 27b6
00000180: 0796 b6ba 308e 1ebc d59c 0780 50d3 c8aa
00000190: e63f 6ea1 420a 08ad 9082 aaaf bd65 2b80
000001a0: ef18 0880 8d69 0480 30b8 2490 e928 36a5
000001b0: e19d 3caf f377 69b1 82de f7a5 ea62 0880
000001c0: f865 0880 043e 239f 8949 79ac d9bd fcb0
000001d0: 2143 84b1 6d2e 22a9 dcaf a38c 9080 0186
000001e0: 407d e8a5 ac65 b8af a990 a7b0 b24f 7db0
000001f0: 880c 99a8 bfd4 c98c bf44 409b 37b9 78ae
00000200: 1b92 8db3 c858 46b2 aa7d 97ae 3083 f4a3
00000210: 7092 0a80 725c 0780 109d 47a3 b932 01ae
00000220: fb97 fcad 239b c9a8 185f 7598 1e22 0d80
00000230: c3ea 0280 9588 e683 ce03 439d 0029 7a9f
00000240: 10f6 6294 40e6 0880 a352 0580 a76e 0d80
00000250: 1f9a 01ab 5f91 d9ad be6a 87ae 71c1 4bb2
00000260: 9b1e 87af 28b4 6a97 2b88 0800 c141 3c27
00000270: 745b 0231 a612 fd35 582e 16b5 8948 85b5
00000280: c4fc 49ad 6375 5e22 0ea1 9cb1 9407 abb5
00000290: 0c09 1e36 a0b2 81b7 4da1 6236 0a81 2938
000002a0: f09b f428 5eb5 25b3 ac5c a4b4 e3e0 de37
000002b0: 6d32 42b6 dac6 ac35 9d24 5535 37f3 a6a8
000002c0: d907 ba35 50e5 d537 afae 4136 eea8 50b7
000002d0: 54ae 0d34 0067 8f28 5756 0a00 6cf0 c8b2
000002e0: 2eb8 b338 0bea 3238 dcdd d637 21de 9234
000002f0: 340b eab2 552f 0a00 c6d1 3e34 97af 9e38
00000300: 5033 2939 bba7 163a 7d1a ee37 2693 e2b0
00000310: a4a7 01bc 1a0f 8dbc e175 a8bc 9ca5 cc3c
00000320: 4809 553c e5f5 843c 4696 ebbc 12f3 4dbc
00000330: d005 88bc 2a92 943d 0330 e93c c2df 203d
00000340: d849 283d 5de0 d03d 35b9 0a3d e59a 5f3d
00000350: b7c4 8ebb a8fc d0bd dd8b 63bd 18e9 aa38
00000360: bb18 99bc 8b95 683d b055 a63d 4189 23bd
00000370: af39 13be a7fb 75bd fd0e b5bd 1d56 64bd
00000380: 4bf3 1d3d f459 3b3d 1ee4 073c 24c3 fe3b
00000390: e546 1dbb 56df 04be 1e14 d6bd a0e8 893b
000003a0: c914 b7bb ecc4 0e3d 2cd8 a43d 6fc9 ad3c
000003b0: d9fe 8cbd 7c2b 6dbc 41e6 f6bb ba13 71bc
000003c0: e266 94bb 654a babc b3a7 3abd 8341 033d
000003d0: e278 97bb dace a3ba d33f 943b 40f7 c1bb
000003e0: 9858 993c 2f93 04bc fd85 9e3c 1242 d8b9
000003f0: 6f57 603b aeef 0d3d be19 ee3c 0873 7cbc
-0.0007559809 0.011083014 -0.00180368 0.0034735673 -0.00042338093 -2.5552084e-13 -5.746397e-25 0.0013677352
-0.008387333 0.0400207 -0.00046578606 -2.4816654e-06 -8.253476e-34 3.914538e-11 0.0074999286 0.023332158
-0.00055315153 2.1736802e-05 6.546138e-05 8.82052e-06 0.00029813763 0.0018314478 -0.0022651658 -3.3136643e-05
3.619095e-05 -2.4797316e-07 0.00016164979 0.00025841783 -0.0028552322 -0.0012932814 -8.0331876e-05 -8.551091e-05
1.300002e-05 0.0003345335 0.0014313015 2.4911671e-05 -0.0011668074 1.8968669e-07 2.9698924e-05 4.5949364e-06
7.929733e-05 0.0055477303 1.5978995e-07 0.0003154353 3.30764e-06 4.4417087e-05 0.00013084136 0.0019916943
0.0023193797 -0.0020659305 -0.0072073257 -0.03826873 -0.037337963 -0.0250398 -0.034162994 0.012869421
-0.04485236 -0.07331758 -0.025456995 -0.041373603 0.10579611 0.07003885 0.0370433 -0.031852607
-0.059896924 -0.05633602 -0.009162839 0.026197286 0.14442272 0.029817067 -0.02488998 -0.03242059
-0.102279395 0.07878025 -0.0056484304 0.025107203 -0.03531376 -0.024995873 0.038313765 -0.019184902
0.07297312 -0.005385954 -0.051845353 -0.075442865 -0.005988842 0.073899895 -0.001186154 0.035932202
3.5236594e-06 -0.020108502 -0.032995872 -0.0066470485 -0.016000813 -0.0011259997 -1.17643285e-05 -2.4921053e-06
-0.001393021 -0.009677455 -6.99109e-40 -3.5673764e-13 -8.0722105e-19 -7.732983e-12 -3.101559e-10 -3.985423e-39
-7.43628e-40 -4.05206e-40 -3.248519e-29 -1.5799845e-16 -1.715459e-10 -3.3974146e-09 -4.2998447e-16 -7.70168e-40
-7.71263e-40 -3.456789e-20 -3.5425848e-12 -1.8389371e-09 -3.8493373e-09 -3.6011494e-14 -2.5219968e-31 -2.4356656e-35
-4.0330457e-16 -3.3541647e-10 -1.2191964e-09 -9.215412e-10 -1.6991847e-14 -3.1096995e-31 -1.5904081e-22 -5.6553175e-11
-6.5924006e-08 -1.1545303e-08 -6.8890074e-11 -2.6510093e-17 -9.70887e-40 -6.76012e-40 -1.0821071e-17 -2.9376255e-11
-2.8716576e-11 -2.2382763e-14 -3.1713518e-24 -1.2061e-39 -2.67888e-40 -1.3549543e-36 -2.5810002e-21 -5.2973474e-20
-1.14586114e-26 -8.17282e-40 -4.88822e-40 -1.233556e-39 -4.604389e-13 -2.4734602e-11 -6.1580505e-11 -1.1860139e-08
-2.4578103e-10 -7.5836867e-25 7.83532e-40 2.6125886e-15 1.8969475e-09 1.8855396e-06 -5.5946794e-07 -9.930383e-07
-1.14816524e-11 3.0148754e-18 -4.5585073e-09 -1.2742698e-06 2.35491e-06 -1.5461177e-05 3.3770514e-06 4.0412917e-05
2.7157069e-14 -3.858201e-08 -3.0614808e-07 2.6569183e-05 -2.8937604e-06 1.2872872e-06 7.940196e-07 -1.853518e-14
1.3860364e-06 2.549836e-05 2.886092e-06 -1.2437098e-05 1.3195069e-07 1.5920858e-14 9.49328e-40 -2.3392396e-08
8.569691e-05 4.2656477e-05 2.56141e-05 2.735624e-07 -2.724628e-08 9.35334e-40 1.7771444e-07 7.566733e-05
0.00016136211 0.00057470397 2.8384145e-05 -1.6485486e-09 -0.007913504 -0.017219115 -0.020564022 0.024981312
0.013002701 0.016230533 -0.02875818 -0.0125701595 -0.016604334 0.07254441 0.028465277 0.039275892
0.041086048 0.10199044 0.033868033 0.05459108 -0.0043569463 -0.1020444 -0.055553306 8.149649e-05
-0.01868855 0.05678324 0.08121812 -0.039925817 -0.14377473 -0.060054448 -0.088407494 -0.055746187
0.0385621 0.045740083 0.0082941335 0.0077747274 -0.0023998555 -0.12975821 -0.10453056 0.0042086393
-0.0055871946 0.034855768 0.08049044 0.021214215 -0.06884546 -0.0144756995 -0.0075347726 -0.014714176
-0.004528866 -0.022740552 -0.045570087 0.0320449 -0.0046225647 -0.001249756 0.00452421 -0.005919367
0.018719003 -0.008091732 0.019351 -0.00041247957 0.0034231802 0.034652404 0.02906501 -0.015408285

linear1.bias f4 [10]
00000000: 2bbf 9fbc 352f 7b3c f153 f3bb a7e9 b23c
00000010: 3ebc 693c 1e8b 91bc 0223 6fbc bc26 fb3b
00000020: 3eb6 6d3d a811 96bc
-0.019500336 0.015331079 -0.007425778 0.02183993 0.014266072 -0.017766532 -0.014595749 0.0076645296
0.058035128 -0.018318966
